chickoz/chatbot/static/data.pth (torch, 5418 bytes, 6 tensors)

l1.weight f4 [8, 54]
00000000: c430 823e b90c e03e c84c 96be 3e20 ba3e
00000010: 1093 463d edd5 ccbd 9bc6 b6bd acbc 3abe
00000020: a133 8abe 7f28 8dbe dc20 273f b792 063f
00000030: 2480 1ebc 647f ee3e 690b 8b3e da3e de3e
00000040: 79eb 1e3f 5143 d9bd d576 20be 0ae7 4e3f
00000050: e55c 623e 3367 4d3f 0d98 4b3f ee5a 523f
00000060: bc92 8fbd 3c44 e93e 7b14 54be a7f1 c23e
00000070: d3f3 1cbe 3e28 653e e130 c1bd 92d1 f63e
00000080: b852 b83d 4ede aebe 47bf d63e 27ba 233f
00000090: 6539 acbe be0b b1be e599 d7bc a22b 85be
000000a0: 788b 063d 0ec1 50be cbb0 d43e ac03 c73e
000000b0: 226a 32be 4284 f53e 8487 603e b5e4 713e
000000c0: 17a0 1d3e 4333 b1be 87d8 d33e 4803 28be
000000d0: f04e 46be 8b62 b5bd bea5 013f 17ab eb3e
000000e0: 0d05 81be 31e5 51be 6f95 11bf 7ef7 bdbe
000000f0: 14ca 9fbc a520 a3be c8ec e4bd 50cc 80be
00000100: c870 0dbe 8c9e 453f 42c0 0f3e e857 443f
00000110: 777b f63e 0798 343f 6955 6ebe 4a68 bebe
00000120: 4d34 96be ac7d bdbe e2aa ec3e a8f0 bdbe
00000130: 04cf bdbe fd56 133d 234f 033f dda0 1ebd
00000140: 41f3 1ebe c406 f13e 803e babc 76f4 9f3e
00000150: dd92 96be 0a0b 563f bad3 b23e ad8c 89bd
00000160: a609 063f 1492 003f 1cde 06be ceae c73c
00000170: c890 1bbe 3a58 e3bd 504e 78be ae7c 8bbe
00000180: 441c 343f 0736 013f 5ccc c23e c98c 043f
00000190: 0d0b 653f 7678 793e 6e60 02be 637e 85be
000001a0: ae07 313f 2364 aebd 9855 2dbe 9fa5 293e
000001b0: 6de2 b3be 665f bf3e b000 5ebe a37e ab3e
000001c0: 318b 243e bdb8 7c3f f0e8 633c 2210 94be
000001d0: add3 7cbe 951c 8abe 301a d33e 3c03 8d3e
000001e0: 465c 143e 289d 553e cfc6 b23e 4fde 9f3e
000001f0: d90a 1a3f 4b37 863f 3661 4bbe 42d7 2e3f
00000200: d359 d6be 25e5 003f 3e7a 253f a818 2c3f
00000210: f058 3b3e f3ef cd3e 0f80 17be 7163 dd3e
00000220: b2c3 a5be 6eeb 903e 0661 573f 6b94 933d
00000230: 4d9e 91bd a1ff a3be a42a d23e 0e8c dc3e
00000240: 9210 87be ad83 78be 5e13 7cbe c250 c0bd
00000250: 73aa 393f a8fe 41be a686 313e 00de be3e
00000260: b3f6 2d3e f328 0c3f 361a 7ebf 5738 89be
00000270: 9e64 cd3d 667a e6be 7d67 c53e d6bd 44be
00000280: 6bd8 55bd 0382 f13d eedb c83e 74d7 023f
00000290: 7702 3e3f 392a d4bd d355 babd 8c9e c4be
000002a0: 3d62 e33e c96c 013f 15d7 343f 3a82 c53e
000002b0: f1e0 47be 345a 0b3f af57 803e 31dd 563f
000002c0: e54e cc3e dc9f bc3e 825a 41be 85d6 c4be
000002d0: d879 b0be c2a5 c4be b4cb 6b3e 79c3 c4be
000002e0: 58a1 c4be 5984 fbbe 7ab8 d23e dbda 41be
000002f0: 5a1e 96be e9a6 c63e 5816 43bd 5ac4 ff3e
00000300: 72cc d1be 5e5d 363f 44f7 013e 3073 123f
00000310: 8ff0 e43e b508 e13e bc2f d13d df87 3a3f
00000320: dc53 c23e fe79 e63e 5c7d 66be a7f8 e8be
00000330: 4109 f13e b96e b53e 5fe2 2f3f e5dc ef3e
00000340: 8ca0 533f b57c 873e 6890 babd a22e dcbe
00000350: 395c d33e 85f9 7dbe d12d ee3e 017b 803e
00000360: 0bf0 ce3e 82bc 2e3f cc6a 16bf 8feb 24be
00000370: ec14 04bf a09e 923d 89b2 a9bb dc8a 00bf
00000380: 342b 13be e48b d3be 10c2 b9be 74ac 433e
00000390: 33c1 f03e 43ab 943e ed3b f63e a87b bdbd
000003a0: f4d0 03be 46d0 e23d bf46 973e 9fdf e2be
000003b0: 70f5 923e b245 ddbe bfe4 00bf bf69 43be
000003c0: 0d30 48be 688b a4bd 96d9 7a3e c496 413f
000003d0: e4ae 19bd 3690 223f 35b5 ed3d 77c5 993e
000003e0: 7c99 6b3e 59bb 0fbf d63d 323f 1771 78bc
000003f0: 353d 88bd 1ce5 8abe 1094 70bd d4e7 11be
0.2542783 0.43759707 -0.29355454 0.36352724 0.048480093 -0.100017406 -0.089246 -0.18236035
-0.26992515 -0.2756996 0.65284514 0.5256762 -0.009674106 0.46581566 0.27157143 0.43407327
0.6207805 -0.10608543 -0.15670331 0.8082129 0.22105749 0.80235595 0.79528886 0.8217
-0.07010409 0.4555987 -0.20710938 0.3807499 -0.15327387 0.22378632 -0.09433151 0.48206764
0.09000152 -0.3415398 0.41942808 0.6395592 -0.3363754 -0.3457927 -0.0263185 -0.26009852
0.03284785 -0.20386145 0.41541132 0.3886999 -0.17423299 0.47952467 0.21926695 0.23622401
0.153931 -0.34609422 0.41376135 -0.16407502 -0.1936605 -0.08856686 0.5064353 0.4602897
-0.25199166 -0.20497586 -0.5686864 -0.37102884 -0.019505538 -0.31860843 -0.11177975 -0.25155878
-0.13812554 0.7719505 0.14038184 0.76696634 0.4814107 0.70544475 -0.23274769 -0.3718894
-0.29336777 -0.37009943 0.46224123 -0.3709767 -0.37072003 0.03597163 0.5129263 -0.03872763
-0.15522482 0.47075474 -0.02273488 0.31241196 -0.29408923 0.83610594 0.3492716 -0.06716285
0.5235847 0.502229 -0.13170666 0.024375346 -0.15191948 -0.11100812 -0.24248624 -0.2724356
0.7035563 0.50473064 0.3804654 0.5177732 0.8946999 0.24362358 -0.12732098 -0.26072988
0.69152343 -0.08515193 -0.16927183 0.16567086 -0.35133687 0.3737747 -0.2167995 0.33495054
0.16068722 0.9871939 0.013910517 -0.28918558 -0.24690123 -0.2697493 0.41230917 0.2754153
0.14488325 0.20860732 0.34917304 0.31224295 0.601728 1.0485624 -0.19861302 0.6829721
-0.41865405 0.50349647 0.6463965 0.6722512 0.18295646 0.4022213 -0.14794944 0.4323993
-0.32375866 0.2830462 0.8413242 0.07206043 -0.071102716 -0.32030967 0.41048157 0.43075603
-0.2637983 -0.2426898 -0.24616763 -0.09390403 0.7252571 -0.189448 0.1733652 0.37278748
0.1698864 0.54749984 -0.99258745 -0.26800796 0.10028957 -0.45015258 0.38555518 -0.19213042
-0.052208345 0.11792376 0.39230293 0.51110005 0.7422251 -0.10359616 -0.09098401 -0.38402212
0.44410887 0.5055662 0.7064069 0.38575917 -0.19519402 0.54434514 0.25066897 0.8393126
0.39903942 0.36840713 -0.18882182 -0.38444915 -0.3446796 -0.38407713 0.23026925 -0.38430384
-0.38404346 -0.4912441 0.4115637 -0.18931143 -0.2932003 0.38799217 -0.04762873 0.49954492
-0.40976292 0.7123622 0.1269198 0.5720701 0.44714782 0.43951955 0.10214183 0.7286357
0.37954605 0.45014948 -0.22508758 -0.45502207 0.47077373 0.35436037 0.6870479 0.46848217
0.8266685 0.2646233 -0.091095746 -0.43004328 0.41281298 -0.24802215 0.4651933 0.25093845
0.40417513 0.6825639 -0.5875671 -0.16105483 -0.51594424 0.071591616 -0.0051787538 -0.5021188
-0.1437195 -0.41317666 -0.3628087 0.19108754 0.470224 0.29036912 0.48092595 -0.09252101
-0.12872678 0.11074881 0.29546162 -0.44311234 0.2870288 -0.43217236 -0.5034904 -0.19083308
-0.1954958 -0.08034402 0.24497065 0.75620675 -0.037520304 0.635013 0.11606828 0.30033466
0.23007768 -0.56145245 0.69625604 -0.0151636815 -0.06652299 -0.27127922 -0.058734953 -0.14248592

l1.bias f4 [8]
00000000: ff15 3c3f 4be7 bd3e b09e 8d3f fe9f c43e
00000010: 0ae3 043f 3655 2a3f 21f4 fd3e f0a5 303f
0.73471063 0.37090525 1.1064053 0.38403314 0.51908934 0.6653627 0.49600318 0.690032

l2.weight f4 [8, 8]
00000000: be34 5f3d d568 5abd a0e6 89bd be1b 7ebd
00000010: 3d0f 753d e52d 0fbe 222e 2dbe 9478 223e
00000020: 8c9f b73e 10bf c03d 2df2 b03f 66e4 fdbe
00000030: ef10 a43f ff01 74bf d1e8 33bf fa87 bcbe
00000040: 72af a73f 0064 a63f edb1 84be 5621 113e
00000050: b10e f13e e7d0 7e3f 7739 ad3f 57e0 1ebe
00000060: 23f7 5d3f 3a91 a7be fd67 e53f 72d8 d0be
00000070: 45b3 17bf 4c41 0a3f 5418 dcbc 54c5 ca3f
00000080: a09b a2bd 18ef 043d b0e6 32be 0061 fb3b
00000090: 6a26 463e 52d3 82be c62f e7bd 4002 98bb
000000a0: 2e62 853f 3fed 373e 8d54 0d3e 15e5 32be
000000b0: 49a6 e3bd 3991 a03f 2112 aa3f 66d8 cebc
000000c0: 2005 303d 9025 8b3c c63e 84be 4060 0dbc
000000d0: c839 89be a4ea 3bbe d443 8e3d 60a7 50bd
000000e0: 7e39 093d 9b62 bb3f 11fc 8ebe d903 c83f
000000f0: 237f 0b3f cff5 c2be 5762 4a3e 0cc6 603f
0.05449366 -0.053322632 -0.06733441 -0.062038176 0.059828985 -0.13982351 -0.1691213 0.1586631
0.35863912 0.09411442 1.3823906 -0.49588317 1.2817668 -0.95315546 -0.70277125 -0.36822492
1.3100417 1.2999268 -0.25916997 0.14172873 0.4708152 0.9953751 1.3533162 -0.15515266
0.86705226 -0.32727987 1.792236 -0.40790135 -0.5925792 0.54005885 -0.02686707 1.584147
-0.07939839 0.03245458 -0.17470813 0.0076714754 0.19350591 -0.2555185 -0.11288409 -0.00463894
1.0420587 0.17961596 0.13801785 -0.174702 -0.11115701 1.2544318 1.3286783 -0.025249671
0.042973638 0.016985685 -0.25829142 -0.008628905 -0.26801896 -0.18351227 0.06946531 -0.05094087
0.033502094 1.4639467 -0.27926686 1.5626174 0.5449087 -0.38078162 0.19764076 0.87802196

l2.bias f4 [8]
00000000: 7041 89be b0bb a03f 4f80 fbbe 5d01 a5be
00000010: e86b 8fbe ecef cfbc 369d 96be 1163 a2be
-0.26807737 1.2557278 -0.4912133 -0.32227603 -0.28012013 -0.025382958 -0.29416817 -0.31716207

l3.weight f4 [7, 8]
00000000: 8e95 a53e 0434 a3bf 2cf8 fa3d 7982 933e
00000010: 865d 3d3e 3233 cd3d 7c8f 1cbe 9599 873d
00000020: ab20 67be a594 bc3d 0c31 f13d 8b3f aebe
00000030: 69ec aa3e 6dfc bfbe 1423 63be a582 ae3e
00000040: b1a2 4d3e 67c5 ee3e 4b79 98bf 9a03 703f
00000050: ee20 793e 7fa9 e5be b62d 0a3e 6b16 84bf
00000060: 3083 5e3e 8cb9 84bf 8f7e 633d bb3f 5b3f
00000070: 3ffa 95be 8fe1 163f 8ba0 843e d225 bebf
00000080: 0ec3 fc39 eb3d a83f 1c0a 33bf 4c9c 9bbf
00000090: 34a6 20be dd10 59bf 884a 88bd d6d4 42bf
000000a0: 26a1 03bd 093d e6bf 44a5 b3bf 4f22 3c3f
000000b0: 55a0 923e 4d3c f5be 6e53 2c3e c700 693f
000000c0: 3863 13be f3c2 8bbf 32bb 153f 7d18 c2bf
000000d0: 904a 083e bcb5 e73e fa21 adbe 4396 ec3e
0.32340664 -1.2750249 0.12254366 0.2881048 0.18492708 0.1001953 -0.1528911 0.0662109
-0.22571056 0.09208039 0.11776933 -0.34032854 0.33383492 -0.37497273 -0.2218135 0.3408405
0.20081593 0.4663498 -1.1912016 0.93755496 0.24328968 -0.44855878 0.13494 -1.0319341
0.21729732 -1.0369124 0.055540618 0.8564412 -0.29292485 0.58937925 0.25903735 -1.4855292
0.00048210513 1.3143896 -0.699373 -1.2157073 -0.15688401 -0.84791356 -0.06654841 -0.7610601
-0.032136105 -1.7987376 -1.403481 0.7348985 0.2863795 -0.47897568 0.16828701 0.9101681
-0.14393318 -1.0918869 0.5848876 -1.5163723 0.13309693 0.4525584 -0.33814985 0.4620839

l3.bias f4 [7]
00000000: 8f1f 0bbf 98c4 7cbf 170b 8abe 30a7 34bd
00000010: 1395 b83f a172 ad3d 601f 22be
-0.5434503 -0.9873748 -0.26961586 -0.044104755 1.4420494 0.08469129 -0.15832281
